model.pth (torch, 308252 bytes, 9 tensors)

fc1.weight f4 [128, 15]
0	0x3e5959d7	0.21225677
1	0xbe51e98b	-0.20499246
2	0x3d32c7d2	0.043647595
3	0xbdac5236	-0.08414118
4	0xbe86b5c7	-0.2631056
5	0x3e2c0314	0.16798049
6	0xbd6d77b1	-0.057975475
7	0x3e004c24	0.12529045
8	0xbde0a6c2	-0.109693065
9	0x3dd07116	0.101778194
10	0x3d399392	0.04530675
11	0xbe932479	-0.28738764
12	0x3e379836	0.17929158
13	0xbdd64c26	-0.10463743
14	0x3dabf991	0.083972104
15	0xbdb9bed3	-0.090696
16	0x3de13475	0.109963335
17	0xbde92cd5	-0.11385504
18	0xbddf6f0e	-0.10909854
19	0xbc1fea95	-0.009760519
20	0x3d0c521b	0.03425799
21	0x3e09d4ca	0.13460079
22	0x3cc7ff2f	0.024413673
23	0x3e1575eb	0.14595763
24	0x3e64c6b5	0.22341426
25	0xbdb0f25a	-0.08639975
26	0x3e9bb27c	0.3040961
27	0xbe2901c4	-0.1650458
28	0xbd943e2e	-0.07238422
29	0x3e79c715	0.2439235
30	0xbe8b8d5b	-0.27256283
31	0x3cf51d6f	0.029921262
32	0x3e0dad46	0.1383563
33	0x3e38e22d	0.18055029
34	0x3d31d573	0.04341645
35	0xbe01bc36	-0.12669453
36	0xbe18f560	-0.14937353
37	0xbe4f99f6	-0.20273575
38	0xbe2d92d2	-0.16950539
39	0x3e945aa6	0.2897541
40	0x3e6042d2	0.2190049
41	0xbe755be5	-0.23960836
42	0xbe5f6403	-0.21815495
43	0x3e0a2a10	0.13492608
44	0xbc1f7f32	-0.009734916
45	0xbe3ce0f6	-0.18445191
46	0xbe6a5f28	-0.22887862
47	0xbe5822e5	-0.21107061
48	0x3e23f6ae	0.1601207
49	0xbe0db0c0	-0.13836956
50	0xbd4675c8	-0.04845217
51	0xbe448498	-0.19191206
52	0xbe980bbe	-0.2969646
53	0x3df2ea97	0.11861151
54	0xbe48d639	-0.1961297
55	0x3ddc054a	0.10743196
56	0x3eb3837f	0.3506126
57	0xbe520e1f	-0.205132
58	0x3d280c2c	0.041027233
59	0x3e625bd4	0.22105342
60	0x3e40aef4	0.1881674
61	0x3e6436eb	0.22286575
62	0xbe85a35b	-0.26101193
63	0x3dde09f9	0.10841746
64	0xbe5fcb95	-0.21855004
65	0x3e1f4565	0.15553816
66	0x3e224291	0.15845706
67	0xbe6a25fa	-0.2286605
68	0xbd57d650	-0.05269462
69	0x3e3269ff	0.17423247
70	0xbe042df9	-0.12908162
71	0x3e3c7d87	0.1840726
72	0x3d88b43a	0.066750005
73	0xbd4ae119	-0.049531076
74	0xbd52fb27	-0.05150905
75	0xbdb7fba2	-0.08983542
76	0x3e028a26	0.12748012
77	0xbdd762ef	-0.10516917
78	0xbe26d2ed	-0.162914
79	0x3d35ec6e	0.04441493
80	0xbe5c7bd8	-0.21531618
81	0x3e423fa3	0.18969588
82	0x3dc9b2fd	0.098485924
83	0x3d78e7cf	0.060767945
84	0xbd5a23a0	-0.05325663
85	0xbd374469	-0.044742975
86	0x3eb37276	0.35048264
87	0x3dd0c95d	0.10194657
88	0xbd327d97	-0.043576803
89	0xbdbed407	-0.09317785
90	0xbe2c9495	-0.16853555
91	0x3b744cfe	0.0037277336
92	0xbd7a2fe2	-0.06108082
93	0x3e6aa403	0.22914128
94	0x3d947de5	0.07250575
95	0xbcd7aee2	-0.026328508
96	0x3d87a34e	0.06622945
97	0x3d0e6336	0.034762584
98	0x3d87edde	0.066371664
99	0x3e3a4113	0.18188886
100	0x3e242914	0.16031295
101	0xbe766e95	-0.24065621
102	0xbdad2cfb	-0.08455845
103	0xbe2d7f45	-0.1694308
104	0xbe327037	-0.17425619
105	0x3d94585f	0.07243418
106	0xbdc3ff71	-0.09570206
107	0xbc56fd6b	-0.013121943
108	0xbc58f836	-0.013242772
109	0x3c0e89ec	0.008699875
110	0xbd25bdfe	-0.040464394
111	0xbd0353af	-0.03206223
112	0x3da2cb2e	0.0794891
113	0x3d9a27bb	0.07527109
114	0xbdadd653	-0.08488145
115	0xbe60335f	-0.21894597
116	0x3e31fc5f	0.17381428
117	0x3cdda23f	0.027054904
118	0xbe16fbe7	-0.1474453
119	0x3e0cd049	0.1375133
120	0x3e51052c	0.20412129
121	0xbe4635ac	-0.19356412
122	0x3da5f497	0.081032924
123	0xbd4de89a	-0.050270654
124	0xbde3c2a1	-0.11121107
125	0xbc54cf1c	-0.012988832
126	0xbe178857	-0.14798103
127	0x3d086c84	0.033306614
128	0xbd65bd53	-0.056088757
129	0x3dd490a6	0.10379152
130	0xbdb7a16c	-0.08966336
131	0xbe71dfd0	-0.23620534
132	0xbe2be9d4	-0.16788417
133	0xbe863baa	-0.26217395
134	0xbe0f12d6	-0.13972029
135	0x3dcfc731	0.101454146
136	0xbd3ff47c	-0.046864018
137	0x3e1f8234	0.15577012
138	0x3e5d840e	0.21632406
139	0xbe6f0ee0	-0.23345518
140	0xbd9c95a5	-0.0764573
141	0x3b5ce90a	0.0033708238
142	0x3da26578	0.0792951
143	0xbe669500	-0.22517776
144	0x3b46c246	0.0030328198
145	0x3ce36dfd	0.027762407
146	0xbe81ae2a	-0.2532819
147	0x3e0a1b3b	0.1348695
148	0xbda428a8	-0.08015567
149	0x3e5cbb1c	0.21555752
150	0xbd293706	-0.04131224
151	0xbe3fa068	-0.18713534
152	0x3e2d85bf	0.16945551
153	0x3d2bc8b5	0.041939456
154	0x3c1625fa	0.009164328
155	0x3e729cb7	0.23692594
156	0xbdc5e11b	-0.09662076
157	0x3e22d3e7	0.15901147
158	0xbda53bac	-0.08068022
159	0xbe04fcc4	-0.12987047
160	0xbbf91743	-0.00760165
161	0xbea96b1e	-0.33089536
162	0x3e7c7802	0.24655154
163	0x3d52b62f	0.051443275
164	0x3d0a27ad	0.033729244
165	0x3c811580	0.015757322
166	0x3e1991f8	0.14997089
167	0xbd0fbf90	-0.035094798
168	0xbe207964	-0.15671307
169	0xbdc696ef	-0.09696757
170	0xbd152055	-0.036407787
171	0xbc6b7c27	-0.014372862
172	0xbe2c0687	-0.16799365
173	0xbe426f78	-0.18987834
174	0xbdffc543	-0.124887966
175	0xbe17e1b4	-0.14832193
176	0x3e6521b0	0.22376132
177	0xbe1e21ac	-0.15442532
178	0xbe0c29a5	-0.13687761
179	0xbe31ec98	-0.1737541
180	0x3d7ef81b	0.06224833
181	0xbe60a429	-0.21937622
182	0x3de037b3	0.10948124
183	0xbdf512bb	-0.11966463
184	0x3e1d5fd8	0.15368593
185	0x3dc75c16	0.09734361
186	0xbe761f78	-0.24035442
187	0x3e442b7b	0.19157211
188	0xbe249b45	-0.16074856
189	0xbe02acfa	-0.12761298
190	0x3d713a55	0.05889352
191	0xbe978e68	-0.29600835
192	0x3e786253	0.24256258
193	0x3d89b4d2	0.06723942
194	0xbe535ef8	-0.20641696
195	0x3e7d84c7	0.24757682
196	0x3e712744	0.23550135
197	0x3e3683d4	0.17823726
198	0x3e372114	0.17883712
199	0xbe6b8d22	-0.23003057
200	0x3e669344	0.22517115
201	0x3e1d4f18	0.15362203
202	0xbddef78a	-0.10887058
203	0xbe0f26b4	-0.13979608
204	0xbd967eb0	-0.073483825
205	0xbe56c936	-0.20975193
206	0xbafd529c	-0.0019326988
207	0x3e7586dd	0.23977228
208	0x3d9e2abd	0.077229954
209	0xbe18d1af	-0.14923738
210	0xbc91bd37	-0.01779042
211	0x3df6b7a6	0.12046747
212	0xbd2c904a	-0.042129792
213	0x3def9bb9	0.116996236
214	0xbe0a9c7f	-0.13536261
215	0x3d91bd77	0.07116216
216	0xbe02c818	-0.12771642
217	0x3daa3f75	0.08312885
218	0xbbd4ccf1	-0.0064941575
219	0xbe193352	-0.14960983
220	0x3cc89b89	0.024488227
221	0xbce08a35	-0.027409652
222	0xbd220c45	-0.039562482
223	0x3e82bfec	0.2553705
224	0x3d0b3481	0.03398562
225	0xbe4a5470	-0.19758773
226	0xbd938259	-0.07202596
227	0xbdefb710	-0.11704838
228	0xbe40f743	-0.18844323
229	0x3e10ee74	0.14153463
230	0xbdbfda13	-0.09367766
231	0x3d06c7f9	0.032905553
232	0xbe3bb985	-0.18332489
233	0xbe3f7ebf	-0.18700694
234	0xbe885a6b	-0.26631483
235	0x3e1a82c9	0.15088953
236	0x3d034e12	0.032056876
237	0xbdb7ea07	-0.08980184
238	0xbda112a3	-0.07864883
239	0x3cb8fc37	0.022581203
240	0x3d023d96	0.031797014
241	0x3e41a91e	0.1891217
242	0x3e5c7737	0.21529852
243	0xbd9ec245	-0.07751898
244	0xbe36371f	-0.17794465
245	0xbd072e2e	-0.033003025
246	0x3d1fa52d	0.038975883
247	0x3e031708	0.12801754
248	0xbe8a8ac9	-0.2705901
249	0x3e002793	0.12515096
250	0xbd6e90c0	-0.058243513
251	0x3e73e4ba	0.23817721
252	0xbe4e2133	-0.20129852
253	0x3d83d9f7	0.06438058
254	0x3dbb2d01	0.09139443
255	0x3e1a31cd	0.1505806

fc1.bias f4 [128]
0	0x3bf91ff4	0.007602686
1	0xbdc4eb16	-0.096151516
2	0x3e40619e	0.18787238
3	0xbc81bc89	-0.01583697
4	0xbe190ea4	-0.14946991
5	0x3e5e7562	0.21724465
6	0xbd80c1d9	-0.062869735
7	0x3ddac677	0.106823854
8	0xbdfd101b	-0.123565875
9	0x3e7bae14	0.24578124
10	0x3e2a7ed7	0.16649948
11	0x3e8c1c5d	0.2736539
12	0xbd972195	-0.07379452
13	0xbe552df4	-0.20818311
14	0xbdae9e43	-0.0852628
15	0xbd87b49d	-0.06626246
16	0x3db849b1	0.089984305
17	0x3e3eb8a4	0.18625122
18	0x3e882eab	0.26598105
19	0xbe096d21	-0.13420536
20	0xbe05f900	-0.13083267
21	0x3e8097d1	0.25115827
22	0xbe52dc1f	-0.20591782
23	0x3e16b6cb	0.14718167
24	0x3d4f9abf	0.050684687
25	0x3e7c3559	0.24629726
26	0xbddf1213	-0.10892119
27	0x3e1b6644	0.1517573
28	0xbe7dfa4e	-0.24802515
29	0x3d4ac8c9	0.04950789
30	0xbe67fa23	-0.22654013
31	0x3db96f88	0.09054476
32	0x3e1575b4	0.14595681
33	0x3e10fc13	0.14158659
34	0x3e784e76	0.2424868
35	0x3db0e634	0.08637658
36	0xbe25589e	-0.16147086
37	0xbcd16e7a	-0.025565375
38	0xbd8dc04c	-0.06921443
39	0x3e52606e	0.20544598
40	0xbe1db3d9	-0.15400638
41	0xbe4328d3	-0.19058542
42	0xbe19ccc7	-0.15019523
43	0x3d0ee6d5	0.034888107
44	0x3be96b4d	0.007123387
45	0xbd4c5f7f	-0.04989576
46	0x3d851369	0.06497843
47	0xbc54a46f	-0.012978657
48	0xbdec665a	-0.115429595
49	0xbe48b43e	-0.19600007
50	0xbd4e6edd	-0.050398696
51	0x3e629e74	0.22130758
52	0x3dab22cb	0.083562456
53	0xbe6dc824	-0.23220879
54	0x3e669660	0.22518301
55	0x3e32a71f	0.17446564
56	0x3d07f05d	0.033188213
57	0x3e2bf4e7	0.16792642
58	0x3e7d75d7	0.24751984
59	0xbe42aa59	-0.19010295
60	0xbc5bec53	-0.013423043
61	0xbe3c4c12	-0.18388394
62	0xbe03ddc5	-0.12877567
63	0x3dff4dbe	0.12466
64	0xbe153d3f	-0.14574145
65	0x3e021ff3	0.127075
66	0xbda5201e	-0.080627665
67	0x3e31405a	0.17309704
68	0xbbe6fc56	-0.0070491238
69	0x3e37eaa7	0.17960607
70	0xbd8dc3fa	-0.06922145
71	0xbe72e07d	-0.23718448
72	0xbdd1fda2	-0.10253455
73	0x3d879143	0.06619503
74	0xbe0ebac7	-0.13938437
75	0xbe09b23a	-0.13446894
76	0x3e4ce961	0.20010902
77	0xbc438575	-0.011933674
78	0xbe15c6ba	-0.1462659
79	0xbe58f198	-0.2118591
80	0x3e42024d	0.1894619
81	0x3da4f66e	0.08054815
82	0xbe04a258	-0.12952554
83	0xbd818329	-0.06323845
84	0xbc67680e	-0.01412393
85	0x3d9c1c90	0.07622635
86	0xbdc3789a	-0.09544487
87	0x3bbd3e2f	0.005775235
88	0x3db00fc9	0.08596761
89	0xbd59c97a	-0.05317066
90	0xbe10a383	-0.14124875
91	0xbe15deb2	-0.14635733
92	0x3df2911d	0.118440844
93	0x3df1c041	0.11804248
94	0x3e61ad4d	0.22038765
95	0xbe01a473	-0.12660389
96	0x3cb7a4b4	0.022417404
97	0x3dac80bc	0.08422992
98	0xbe8ef3e1	-0.2792044
99	0x3cfcd829	0.030864792
100	0xbdf7d1fa	-0.12100597
101	0x3e6b85a2	0.23000196
102	0xbb385727	-0.0028128119
103	0x3e333323	0.17499976
104	0xbe3a5cd8	-0.1819948
105	0xbe230e73	-0.1592348
106	0x3ccd9779	0.025096642
107	0xbbada599	-0.005299282
108	0x3d01257e	0.031529896
109	0xbe032a8f	-0.12809204
110	0xbbf22bb8	-0.0073904656
111	0x3db0a494	0.08625141
112	0xbd593c83	-0.053036224
113	0xbe0f36de	-0.13985774
114	0xbc14c407	-0.00907994
115	0xbe190b63	-0.1494575
116	0xbe5b7ae5	-0.214336
117	0xbe1b8efb	-0.15191261
118	0xbc24084a	-0.010011742
119	0x3cd1cf04	0.025611408
120	0xbdd2f02c	-0.102997154
121	0xbd9b55d4	-0.0758473
122	0xbc83e451	-0.01610008
123	0xbe17d549	-0.14827456
124	0xbe6ee93a	-0.23331156
125	0x3d132a77	0.03592917
126	0x3e439954	0.19101459
127	0xbda5ff6f	-0.08105361

fc2.weight f4 [256, 128]
0	0x3d8f1562	0.069865
1	0x3c2f02a1	0.010681779
2	0xbda0508c	-0.07827863
3	0xbcbb77db	-0.0228843
4	0xbc78d459	-0.015187346
5	0xbd7573f0	-0.05992502
6	0x3d704385	0.05865814
7	0x3c85f4af	0.016352026
8	0xbd19f4f8	-0.037587136
9	0xbd2c8c2f	-0.042125877
10	0xbcbfd25a	-0.023415733
11	0x3d0dd743	0.034629118
12	0x3d658523	0.056035172
13	0xbc1f6a4c	-0.009729933
14	0x3d885867	0.066574864
15	0xbc1a28b9	-0.009409123
16	0x3c387d01	0.011260272
17	0x3cf376fd	0.029719824
18	0xbda1dfa5	-0.07903985
19	0xbd99d9f1	-0.07512272
20	0x3ce05433	0.0273839
21	0xbdda3b7e	-0.106558785
22	0xbda7639b	-0.08173295
23	0x3d11d797	0.035605993
24	0xbd826a6a	-0.06367953
25	0xbcfc910d	-0.030830884
26	0xbd672b43	-0.056437742
27	0xbd0d0435	-0.03442784
28	0xbd1672f1	-0.03673071
29	0x3d212098	0.039337724
30	0xbd67efa7	-0.056625035
31	0xbc7ee7bd	-0.01555818
32	0x3d4badd8	0.049726337
33	0xbd9a29bd	-0.07527492
34	0x3d78392a	0.06060139
35	0x3cc65add	0.024213249
36	0xbc4b008e	-0.012390269
37	0x3cf1d596	0.029520791
38	0x3ca58492	0.020204816
39	0x3c7a0ba0	0.015261561
40	0xbd8a8b30	-0.06764829
41	0xbda9275d	-0.08259461
42	0x3d5cc323	0.053897034
43	0x3da1e70b	0.07905396
44	0xbd9afdc8	-0.07567936
45	0xbd8a563d	-0.0675473
46	0x3d2abed5	0.041685898
47	0x3d93dc5a	0.07219763
48	0x3d41c3d4	0.047305897
49	0x3d8f6df1	0.070033915
50	0x3ccd9f51	0.025100382
51	0x3da9e669	0.082959004
52	0x39368f0d	0.00017410163
53	0xbd3f977d	-0.04677533
54	0x3d22f8d7	0.039788093
55	0x3daebc0a	0.08531959
56	0x3afcfc98	0.0019301353
57	0xbc9d3de7	-0.019194556
58	0x3d8818f0	0.066453815
59	0xbdb5e81e	-0.088821635
60	0x3dbfba36	0.09361689
61	0xbdaed8fe	-0.08537482
62	0x3da15a52	0.07878555
63	0x3b788344	0.0037920037
64	0x3d9041da	0.0704381
65	0xbc90386d	-0.01760503
66	0x3d942076	0.07232754
67	0xbd2a7d5c	-0.04162346
68	0xbd1ab6d4	-0.037772015
69	0x3cf6dfa9	0.030135946
70	0x3d5d1a6e	0.053980283
71	0x3d4a9be7	0.049465086
72	0xbc0fb36e	-0.008770807
73	0x3dc6d91e	0.097093806
74	0xbdcf0f73	-0.101103686
75	0x3bc12699	0.005894494
76	0x3bcf9457	0.006334822
77	0xbd7c532e	-0.061602764
78	0xbd4f45f0	-0.050603807
79	0x3d804907	0.06263929
80	0x3cee1edf	0.029067455
81	0xbd102280	-0.03518915
82	0x3d3a1408	0.04542926
83	0x3b4ac5c4	0.0030940631
84	0x3d5e941b	0.054340463
85	0x3d227f77	0.03967234
86	0x3d8e8138	0.0695824
87	0x3d2491d5	0.04017814
88	0x3da7d51f	0.081949465
89	0xbcd77b12	-0.026303802
90	0xbdbf8d2b	-0.093530975
91	0xbd57b718	-0.052664846
92	0xbd945f94	-0.072447926
93	0xbc028d82	-0.007968308
94	0x3ce01c5a	0.02735727
95	0x3d85b12e	0.06527935
96	0x3d406f57	0.046981182
97	0xbd3b8d2d	-0.045788933
98	0xbcb78349	-0.022401469
99	0x3ca76788	0.02043511
100	0xbda79eb3	-0.08184566
101	0x3d9577f8	0.07298273
102	0x3aac213e	0.0013132466
103	0xbda2b5fa	-0.079448655
104	0xbd2f40bc	-0.042786345
105	0x3d4a62a7	0.04941049
106	0x3d712c8b	0.05888037
107	0xbcc096d4	-0.02350942
108	0x3d88eeb7	0.06686156
109	0x3b9c04c2	0.0047613094
110	0xbd1be468	-0.038059622
111	0xbd9e3f13	-0.07726874
112	0x3d0b2ef4	0.033980325
113	0x3d8ad3a2	0.06778647
114	0x3c6d7ae2	0.01449463
115	0xbcdf4ad0	-0.027257353
116	0x3d8c1725	0.06840352
117	0xbd79309e	-0.06083738
118	0xbd3b3b4f	-0.045710858
119	0x3c824cdf	0.015905796
120	0xbd3c5ddf	-0.04598796
121	0x3d241302	0.04005719
122	0x3cfb6e08	0.030692115
123	0xbced35f9	-0.0289564
124	0xbcbaf5c4	-0.022822268
125	0xbc3935ee	-0.011304362
126	0x3d96720a	0.0734597
127	0xbda91a55	-0.082569756
128	0x3dcba97c	0.09944436
129	0x3d5ba3aa	0.05362288
130	0xbd6e4ebe	-0.058180563
131	0x3a473b2b	0.0007600064
132	0xbd715612	-0.058919974
133	0x3d16c937	0.036812987
134	0x3d343079	0.04399154
135	0xbdc1e3b7	-0.09467261
136	0x3dc1b6d2	0.09458698
137	0xbd507abc	-0.0508983
138	0xbd0bac10	-0.03409964
139	0xbd3f8371	-0.04675621
140	0x3d0260f5	0.031830747
141	0x3dabed90	0.08394921
142	0x3db42b7d	0.08797357
143	0x3ce4bb88	0.027921453
144	0xbc2d8180	-0.010589957
145	0xbc1e3035	-0.009655048
146	0xbd582510	-0.05276972
147	0x3d0be38f	0.034152564
148	0xbd6c0844	-0.05762507
149	0xbcb863be	-0.022508498
150	0x3d3392b5	0.043841083
151	0xbcd29a11	-0.02570823
152	0xbd370d66	-0.044690512
153	0x3d1fb216	0.038988195
154	0x3dc7b7e7	0.097518735
155	0xbce4c37d	-0.027925247
156	0xbc94b3c0	-0.018152118
157	0x3d6a051b	0.057133775
158	0x3b2c51de	0.0026293914
159	0xbd8995f9	-0.06718058
160	0x3d0540ca	0.03253249
161	0x3cd9acb4	0.02657161
162	0x3cd88ac5	0.026433358
163	0x39090324	0.00013066508
164	0x3d15187e	0.03640031
165	0xbd684f33	-0.056716155
166	0xbc0b4eb8	-0.008502655
167	0x3d60a3ff	0.0548439
168	0xbb28a98c	-0.0025735823
169	0xbda14301	-0.07874108
170	0x3d8469dd	0.06465504
171	0x3b4155a5	0.002950051
172	0x3d2fc192	0.042909212
173	0xbc24c6b9	-0.010057145
174	0xbcb636fb	-0.022243014
175	0x3cf47e39	0.029845344
176	0xbc026d0b	-0.007960568
177	0x3db40180	0.087893486
178	0xbd672c2e	-0.056438617
179	0x3c29e5d2	0.010369735
180	0x3d251c34	0.0403101
181	0xbc51e0a9	-0.012809911
182	0x3d23a2c4	0.039950147
183	0xbdc49afc	-0.095998734
184	0x3d5020c5	0.0508125
185	0x3b8a7bb6	0.0042261733
186	0xbd8a67ce	-0.067580804
187	0x3d863540	0.065531254
188	0x3d1f72a7	0.0389277
189	0xbdbdea19	-0.09273166
190	0xbd0f934b	-0.03505258
191	0x3db255d7	0.08707779
192	0xbcdfa1af	-0.027298776
193	0x3c6334b7	0.013867549
194	0xbc3819c8	-0.0112366155
195	0xbd54216b	-0.051789682
196	0xbcf7c35f	-0.030244527
197	0x3d8b58fc	0.06804082
198	0x3d1985f0	0.03748125
199	0xbcb02511	-0.02150205
200	0x3d7df79a	0.06200371
201	0xbd1a5def	-0.03768724
202	0xbcf82605	-0.030291567
203	0x3ccbcfb0	0.024879307
204	0xbcb42133	-0.021988487
205	0x3dc2f6f6	0.0951976
206	0x3cb1da3a	0.021710504
207	0xbd048f1b	-0.03236304
208	0x3d87139f	0.06595539
209	0x3d9cf642	0.076641575
210	0xbca55d69	-0.020186143
211	0x3dcaa6ba	0.09895082
212	0x3ce4df13	0.027938401
213	0x3ddabe52	0.10680832
214	0x3d63f855	0.05565675
215	0x3cd0e692	0.02550057
216	0xbac8ed4f	-0.0015329513
217	0xbbd50702	-0.0065010795
218	0xbc86aca2	-0.01643974
219	0xbc3db91f	-0.011579781
220	0x3ce716db	0.02820914
221	0x3c9c3a7b	0.019070854
222	0xbdb4c5d1	-0.08826793
223	0xbce5758b	-0.02801015
224	0xbd37db3b	-0.04488681
225	0x3c9ff8c0	0.019527793
226	0x3d38c0b4	0.04510565
227	0xbd0cea69	-0.03440324
228	0x3b4ec61d	0.003155119
229	0xbbe71975	-0.0070525953
230	0xbca38723	-0.0199619
231	0xbd1718ca	-0.036888875
232	0x3d8d6cd1	0.06905521
233	0x3db8143d	0.08988235
234	0x3da80d9d	0.082057215
235	0xbd9007b9	-0.07032723
236	0xbd8ffe21	-0.07030893
237	0x3cb77c14	0.022398032
238	0xbc8cbfb3	-0.017181253
239	0x3d9221c9	0.0713535
240	0xbd293cc8	-0.04131773
241	0xbc5f413f	-0.013626396
242	0xbcc2ed6e	-0.023794856
243	0xbc7c2e58	-0.015391909
244	0x3d94ca0f	0.07265102
245	0xbd4381fa	-0.047731377
246	0x3c2ef984	0.010679606
247	0xbdcc2d50	-0.0996958
248	0x3d13b483	0.03606082
249	0x3df8b5a3	0.121440195
250	0x3dd4d16e	0.10391508
251	0xbcb26628	-0.021777228
252	0xbd814ff3	-0.06314077
253	0x3d8a5f05	0.06756405
254	0x3d0d9363	0.034564387
255	0x3dc523f3	0.096259974

fc2.bias f4 [256]
0	0x3c84f663	0.016230768
1	0x3d1f1134	0.038834766
2	0x3da31f63	0.07964971
3	0xbcfd8ad4	-0.030949987
4	0x3d66ba87	0.05633023
5	0xbd0adb5d	-0.033900607
6	0xbce6ecff	-0.02818918
7	0x3d3db7ef	0.04631799
8	0xbce5c349	-0.02804722
9	0xbd431203	-0.0476246
10	0x3d93af14	0.07211128
11	0xbd25ba59	-0.040460918
12	0x3c258546	0.010102576
13	0x3c8575af	0.016291467
14	0x3cda7c04	0.026670463
15	0x3be16585	0.006878557
16	0xbd6c40b3	-0.05767889
17	0xbd27e490	-0.04098946
18	0x3d9a369b	0.075299464
19	0xbc6d193a	-0.0144713465
20	0x3d95d5f3	0.07316198
21	0xbd771e0b	-0.060331386
22	0x3d87c70c	0.06629762
23	0x3b10fef7	0.0022124627
24	0x3d838c52	0.06423248
25	0x3d847a11	0.06468595
26	0xbd298718	-0.0413886
27	0xbdababfd	-0.083824135
28	0x3d93eac8	0.07222515
29	0xbd4d4d79	-0.05012271
30	0x3d24fb6c	0.040278837
31	0x39892799	0.0002616018
32	0x3c34373c	0.010999497
33	0x3d8ff580	0.07029247
34	0xbd8d333f	-0.0689454
35	0x3dbeab37	0.093100004
36	0xbc2f3ac7	-0.010695166
37	0x3d53152a	0.051533855
38	0xbddcd0d8	-0.10782021
39	0xbd4af395	-0.049548704
40	0x3d864912	0.06556906
41	0x3b0913be	0.0020916308
42	0xbd0c12c8	-0.0341976
43	0x3d84ac14	0.06478134
44	0xba9c620a	-0.0011931073
45	0x3d9e4f1f	0.07729935
46	0x3d1fe5cf	0.039037522
47	0xbd13604b	-0.035980504
48	0xbd4d5c71	-0.050136987
49	0x3d6946b8	0.05695221
50	0x3dc90082	0.0981455
51	0x3d9b4aa4	0.07582596
52	0xbcd03325	-0.025415013
53	0xbd43745c	-0.04771839
54	0xbd109cd2	-0.035305806
55	0x3ccc3ff3	0.024932837
56	0x3ba8a8db	0.0051470823
57	0x3d7fbbae	0.062434845
58	0xbd233f79	-0.039855454
59	0xbcfe5880	-0.03104806
60	0x3dc5c815	0.09657303
61	0x3d63494b	0.05548982
62	0x3d5bfb50	0.053706467
63	0xbbe3fa54	-0.0069573317
64	0x3c0ce34d	0.008599115
65	0xbd6cea47	-0.05784061
66	0x3c5c16e0	0.013433188
67	0x3da79929	0.0818351
68	0x3d4be7ef	0.049781736
69	0x3d466fc0	0.048446417
70	0x3de86c98	0.113488376
71	0x3d07315b	0.033006053
72	0xbda25a6a	-0.07927401
73	0xbdb0bfe6	-0.08630352
74	0x3be82087	0.0070839557
75	0xbc8d30d3	-0.017235195
76	0xbc86c721	-0.016452374
77	0xbd80f97b	-0.062975846
78	0xbc6dc0f9	-0.01451134
79	0x3c8c5c67	0.017133905
80	0x3d320a2a	0.043466724
81	0x3c82a027	0.015945507
82	0x3dccd575	0.10001651
83	0xbc7e626d	-0.015526396
84	0xbd85f46c	-0.065407604
85	0x3dc358f2	0.09538449
86	0x3c9bc53a	0.019014943
87	0x3d1307a1	0.035895947
88	0x3da68e7a	0.08132644
89	0x3dcf08f0	0.101091266
90	0x3d1b357c	0.037892804
91	0x3cd3a14f	0.025833754
92	0x3cab25f5	0.020892123
93	0x3cbc404c	0.022979878
94	0xbbc8bea1	-0.0061262404
95	0xbd9fff50	-0.07812369
96	0xbce39b92	-0.027784143
97	0xbd52d8dc	-0.051476344
98	0x3dab028a	0.08350094
99	0xbc673a14	-0.014112968
100	0x3c8bda50	0.017071873
101	0x3cc3c7f0	0.023899049
102	0x3d4e56ad	0.05037563
103	0xbcb77d9c	-0.022398762
104	0xbd3517c4	-0.044212118
105	0x3d1e1e34	0.038603023
106	0xbd5ba6d8	-0.05362591
107	0xbb5fc5c6	-0.0034144982
108	0xbd5e7d06	-0.05431845
109	0x3dda3562	0.10654713
110	0x3d87b99a	0.066271976
111	0x3c5b27db	0.0133762015
112	0xbcfe233a	-0.031022657
113	0x3cbe67c9	0.023242848
114	0x3d1c5b13	0.038172793
115	0xbd29e3ca	-0.041477002
116	0x3d715dd7	0.058927383
117	0xbd5ddb5e	-0.054164283
118	0x3db9a757	0.09065121
119	0xbd6d4475	-0.057926614
120	0xba6be471	-0.0008998579
121	0x3b13c1b0	0.0022545867
122	0xbd27cf21	-0.040969018
123	0x3d7c62ee	0.061617784
124	0x3d6a4771	0.057197038
125	0x3d0daf1e	0.034590833
126	0xbd2ee0ee	-0.04269498
127	0x3c032fd6	0.00800701
128	0xbc65ac69	-0.014018157
129	0xbd24d0e4	-0.040238276
130	0x3dac5792	0.0841514
131	0x3c9c033d	0.019044513
132	0x3db3da56	0.08781879
133	0x3c747626	0.014920747
134	0x3da4bbad	0.08043609
135	0xbca82325	-0.02052457
136	0x3cbe5fbc	0.02323901
137	0x3dc22910	0.09480488
138	0x3da7419f	0.08166813
139	0x3d62b9fd	0.055353153
140	0x3c3b7d9c	0.011443522
141	0xbca328bb	-0.019916883
142	0x3caa9629	0.020823555
143	0xbcc6340d	-0.024194742
144	0x3cb0169b	0.021495154
145	0x3dc381e6	0.095462605
146	0x3d2fff52	0.0429681
147	0xbab14278	-0.0013523838
148	0xbd86f8b4	-0.06590405
149	0x3d4d8baf	0.05018204
150	0x390bbf4c	0.00013327337
151	0x3ce7ead3	0.028310215
152	0xbce2b522	-0.027674261
153	0xbd35079e	-0.044196717
154	0xbd6ce710	-0.057837546
155	0x3dd0c131	0.10193098
156	0xba645ccc	-0.00087113376
157	0x3dc1bebe	0.09460209
158	0x3d9535a5	0.072856225
159	0x3d577d39	0.052609656
160	0xbcc0df68	-0.023544028
161	0x3d923dc8	0.0714069
162	0xbd1519ef	-0.036401685
163	0x3d9ca6e8	0.07649022
164	0xbb31d4d7	-0.002713492
165	0xbd526dcf	-0.051374253
166	0x3c38866b	0.0112625165
167	0x3d1c07ba	0.038093306
168	0x3d92a4b4	0.07160321
169	0x3d005057	0.031326618
170	0x3ad1137b	0.001595124
171	0xbda028f9	-0.07820315
172	0x3c9ef6cb	0.01940479
173	0xbd6978e9	-0.057000075
174	0xbd47a4b0	-0.048741043
175	0x3ae317d6	0.0017325829
176	0xbd6d5d7f	-0.057950493
177	0xbd36ca9b	-0.044626813
178	0xbd6d386c	-0.057915136
179	0xbd97a084	-0.07403663
180	0x3a7cafbb	0.0009639223
181	0x3c82fe18	0.015990302
182	0x3dc7afd5	0.09750334
183	0xbc9e1571	-0.019297333
184	0xbdbb1689	-0.091351576
185	0xbc98c070	-0.018646449
186	0xbcb8d7ab	-0.022563776
187	0x3d279815	0.04091652
188	0x3d90d750	0.070723176
189	0xbbb83b21	-0.005622283
190	0xbd6921d8	-0.05691704
191	0x3ce8eafb	0.02843236
192	0xbc614699	-0.013749742
193	0x3db956cd	0.09049759
194	0xbd83c84b	-0.06434687
195	0x3d1571a6	0.036485337
196	0x3d00e192	0.03146512
197	0x3d83cc13	0.064354084
198	0xbcfe2b86	-0.031026613
199	0x3d0cec2e	0.034404926
200	0x3cc099d6	0.023510855
201	0xbd1f18fe	-0.038842194
202	0xbd85114b	-0.06497439
203	0x3c822c2a	0.0158902
204	0x3d00bd78	0.03143069
205	0xbd81a902	-0.06331064
206	0xbd0e8f96	-0.034804903
207	0x3a92a936	0.0011189345
208	0xbcfb5e92	-0.030684743
209	0xbcc04fdc	-0.02347558
210	0x3d3659ee	0.044519357
211	0xbd265060	-0.040603995
212	0xbc68ef2f	-0.014217182
213	0x3d3a3be8	0.045467287
214	0x3daedb27	0.08537894
215	0x3dd8394b	0.10557803
216	0xbc791436	-0.015202573
217	0x3ac2070b	0.0014803124
218	0xbd3571a3	-0.044297826
219	0x3cc8eb08	0.024526134
220	0xbd06f94d	-0.032952596
221	0x3c11bd89	0.008895286
222	0x3c81913b	0.015816322
223	0x3d7a16f5	0.06105705
224	0x3c263291	0.010143892
225	0x3cd572f5	0.026055792
226	0xbd84c16a	-0.06482203
227	0x3dcac275	0.09900371
228	0xbd77cd41	-0.06049848
229	0xbc0d57e9	-0.008626916
230	0x3d4f05cc	0.050542638
231	0xbd0af4a8	-0.03392473
232	0xbb253c1e	-0.0025212835
233	0x3dacc5bb	0.084361516
234	0xbc08d332	-0.008351134
235	0xbd2df86d	-0.042473245
236	0xbcf6e306	-0.03013755
237	0x3da476ec	0.08030495
238	0x3c8c3b26	0.017118048
239	0x3dee6062	0.11639477
240	0x3cbdf0ca	0.023186106
241	0xbd348999	-0.044076536
242	0xbbe76b35	-0.0070623406
243	0x3d84e026	0.064880654
244	0x3cec9f5a	0.028884578
245	0xbca3ef87	-0.020011676
246	0x3dbe4553	0.09290566
247	0x3d75807c	0.059936985
248	0x3d6c8691	0.05774552
249	0xbd015aa6	-0.03158059
250	0xbd44776f	-0.047965463
251	0x3dadb1da	0.08481188
252	0xbd8328d2	-0.0640427
253	0xbc076089	-0.008262762
254	0x3d743f4a	0.05963067
255	0x3d215821	0.039390687

fc3.weight f4 [128, 256]
0	0x3d201bd1	0.039089028
1	0xba1d12cb	-0.0005991875
2	0x3d34cab0	0.04413861
3	0xbd2186dc	-0.039435253
4	0x3d955267	0.072911076
5	0x3d034a5d	0.03205334
6	0xbcc97f9f	-0.024596987
7	0xbd4e7f6d	-0.05041449
8	0x3d1fb578	0.03899142
9	0xbdb5e281	-0.08881093
10	0xbccadafb	-0.024762621
11	0xbd162dc2	-0.03666473
12	0x3d5cda2b	0.053919
13	0x3be7e464	0.007076787
14	0xbd6658c1	-0.056236986
15	0x3d5017ef	0.050804075
16	0x3d4f86d9	0.05066571
17	0x3c34e75c	0.0110414885
18	0xbd5b2cbb	-0.053509455
19	0x3d2867c9	0.041114602
20	0x3d55f56c	0.052236006
21	0xbd161c4a	-0.036648072
22	0x3b9020a0	0.0043984205
23	0x3d1a18ab	0.03762118
24	0xbcf870d1	-0.030327233
25	0xbc958a08	-0.018254295
26	0x3c3df061	0.011592955
27	0x3cafb8a2	0.021450344
28	0xbd39dbfc	-0.04537581
29	0x3d98180c	0.074264616
30	0x3d771051	0.060318295
31	0xbc336887	-0.010950214
32	0x3cdb9f73	0.02680943
33	0xbc1927d9	-0.009347879
34	0xbd1f42a3	-0.03888191
35	0x3c290f61	0.010318608
36	0xbd8714b6	-0.06595747
37	0xbd0f52b9	-0.034991
38	0x3cd59ab3	0.026074743
39	0xbd170eb3	-0.036879253
40	0x3b3a9468	0.0028469805
41	0x3d30ba96	0.043146692
42	0xbd2e7a19	-0.04259691
43	0x3c06b2c0	0.008221328
44	0xbc3786a4	-0.011201534
45	0xbc0ef500	-0.008725405
46	0xbd53f643	-0.051748525
47	0x3d918f8d	0.07107458
48	0x3d1dc3b5	0.03851672
49	0x3c5cc3a4	0.013474379
50	0xbbea7c2d	-0.007155916
51	0x3d072ebc	0.033003554
52	0xbc2895b2	-0.010289596
53	0xbcf10758	-0.029422447
54	0xbda5536e	-0.080725536
55	0xbd54b080	-0.051926136
56	0xbbf7d70a	-0.0075634765
57	0xbd56c4df	-0.052433845
58	0xbcee15f1	-0.029063197
59	0x3d2b3513	0.041798662
60	0x3d5cb7ef	0.05388635
61	0xbd39c268	-0.045351416
62	0x3c53bf71	0.012924061
63	0x3cf2fef5	0.029662589
64	0x3cbeaa57	0.023274584
65	0x3c996ecd	0.018729592
66	0x3d08ea72	0.03342671
67	0x3c2a1f9d	0.010383514
68	0xbcc7fe1d	-0.024413163
69	0x3d3332b4	0.043749526
70	0xb9dabe24	-0.00041721866
71	0x3c6eaaa2	0.014567049
72	0xbc1ec5f6	-0.009690752
73	0x3ae5548c	0.001749651
74	0x3b5bbed5	0.0033530493
75	0x3d974fb6	0.073882505
76	0xbcc46d7f	-0.023977993
77	0xbd3f2327	-0.046664383
78	0x3bed2f86	0.0072383313
79	0xbca74a55	-0.020421186
80	0xbd9137b4	-0.07090703
81	0x3d84efaa	0.06491025
82	0xbc0afa0c	-0.008482467
83	0xbc80c350	-0.015718132
84	0xbd93702b	-0.07199129
85	0x3b0defe5	0.002165788
86	0xbd0c3a8d	-0.034235526
87	0x3da968d8	0.082719505
88	0xbcd44f8e	-0.02591684
89	0x3d844ac6	0.064595744
90	0x3d5fb3f6	0.054614983
91	0x3c56ca46	0.013109749
92	0x3c046783	0.00808132
93	0x3d8c85ac	0.068614334
94	0xbd67f95c	-0.056634292
95	0xbcf1013a	-0.02941953
96	0x3dbada9c	0.09123728
97	0x3d8cfd55	0.06884257
98	0xba939b32	-0.0011261462
99	0x3c51c04f	0.012802198
100	0x3db23fa1	0.087035425
101	0x3d7b810c	0.061402366
102	0x3bc89bcb	0.0061220876
103	0xbd31f8f5	-0.043450315
104	0xbd75a6dc	-0.059973583
105	0xbd3064d3	-0.043064903
106	0x3d353008	0.04423526
107	0x3d2a121e	0.041521184
108	0xbcca192c	-0.024670206
109	0x3d8a5354	0.06754175
110	0xbcb8abb8	-0.02254282
111	0xbd59b89d	-0.053154577
112	0xbcc2bad2	-0.023770723
113	0x3d833fb0	0.06408632
114	0x3d9358d5	0.07194678
115	0x3c462d0f	0.012095704
116	0xbc9942ea	-0.018708665
117	0x3d0f0b64	0.034922972
118	0x3d5220ae	0.051300697
119	0x3b8f1e40	0.0043676198
120	0x3cc7c2a2	0.0243848
121	0x3d6a51b6	0.057206832
122	0x3da73f1d	0.08166335
123	0x3d380fb2	0.044936843
124	0x3a007bbe	0.00049012515
125	0xbd913955	-0.07091013
126	0xbcb76a6d	-0.022389615
127	0x3d45bfaf	0.048278507
128	0x3d212513	0.039341997
129	0xbce142f2	-0.027497742
130	0xbce9ab9f	-0.028524218
131	0xbba7baff	-0.005118727
132	0x3da40805	0.08009342
133	0x3d2408d2	0.040047474
134	0x3c7420f5	0.014900436
135	0xbc017d35	-0.007903387
136	0xbc621ecc	-0.013801288
137	0x3d1a0e8f	0.03761154
138	0x3d4cd8f3	0.050011586
139	0x388c0b08	6.677775e-05
140	0x3dae91ce	0.08523904
141	0xbd244a2f	-0.04010981
142	0x3d7f8598	0.062383264
143	0xbda726b6	-0.081616804
144	0xbd519180	-0.05116415
145	0x3cce67db	0.025196007
146	0x3ce5b7c1	0.028041722
147	0xbcd3008a	-0.025757093
148	0x3c73ca96	0.014879843
149	0xbc98acf2	-0.018637154
150	0x3c3f8bee	0.011691077
151	0x3cfd2aaf	0.030904142
152	0x3ca79251	0.020455511
153	0x3d03046b	0.031986635
154	0xbda45737	-0.080244474
155	0x3d3fccbd	0.046826113
156	0x3d04edf7	0.032453503
157	0x3cc375ea	0.023859937
158	0x3cb8135c	0.022470169
159	0xbd664ed0	-0.056227505
160	0xbd09f54f	-0.03368121
161	0xbc52bfd3	-0.012863117
162	0xbc754cae	-0.014971895
163	0xbd8ae042	-0.06781055
164	0xbcddfdfc	-0.027098648
165	0xbc926a87	-0.017873062
166	0xbd883860	-0.06651378
167	0x3b97bb29	0.0046304655
168	0x3d914528	0.07093269
169	0x3d847721	0.064680345
170	0x3c73208a	0.014839301
171	0x3d5b67cf	0.053565796
172	0x3d32e74d	0.043677617
173	0xbd2056a7	-0.039145138
174	0xbc9e865e	-0.01935118
175	0x3b55e0a6	0.0032635122
176	0x3c51df6f	0.012809618
177	0x3c296828	0.010339774
178	0x3c30e03d	0.01079565
179	0xbcaef2c0	-0.021355987
180	0xbd88c7df	-0.066787474
181	0x3d3cce85	0.04609539
182	0x3d6e6622	0.05820287
183	0x3cdebc4d	0.027189398
184	0x3d6c7b80	0.057734966
185	0xb91ec20d	-0.00015140344
186	0x3b478c01	0.003044844
187	0xbce632da	-0.02810042
188	0xbd3e6a0e	-0.04648786
189	0x3c8eab83	0.017415768
190	0xbcbf4225	-0.02334697
191	0xbc50bb5a	-0.012739981
192	0xbbf53757	-0.0074834037
193	0x3d3f0f8c	0.046645686
194	0xbd493392	-0.049121447
195	0x3aed884c	0.0018122285
196	0x3d4585ff	0.04822349
197	0xbd1154b6	-0.035481177
198	0x3d21126b	0.039324205
199	0xbd315b10	-0.043299735
200	0x3d348c38	0.044079036
201	0x3bb004ab	0.00537165
202	0x3cca42fc	0.024690144
203	0xbd89ba9d	-0.06725047
204	0xbbd13096	-0.0063839657
205	0x3c623f7d	0.013809082
206	0x3d176662	0.036962874
207	0x3c5ab5a1	0.013348968
208	0xbd03a356	-0.03213819
209	0xbc943371	-0.018090935
210	0xbd379272	-0.044817396
211	0x3ceed3a7	0.029153658
212	0xbd0ced55	-0.034406025
213	0xbd999e3d	-0.07500885
214	0xbd83c306	-0.06433682
215	0x3b54a040	0.003244415
216	0x3c21a724	0.00986651
217	0xbc595881	-0.01326573
218	0xbd1e959b	-0.038716894
219	0xbcdde3d1	-0.02708617
220	0x3d2d50a4	0.042313233
221	0x3c935b6c	0.01798793
222	0xbd310679	-0.043219063
223	0xbcd56ddd	-0.026053363
224	0x3c8efaec	0.017453633
225	0x3d318059	0.043335292
226	0x3d551771	0.05202431
227	0x3d8630d5	0.06552283
228	0x3d9561fc	0.0729408
229	0xbca39a33	-0.019970989
230	0x3d506964	0.05088176
231	0xbb2d5bbe	-0.0026452388
232	0xbcb99421	-0.022653641
233	0x3d388de7	0.045057204
234	0x3c90fbdc	0.01769822
235	0x3d90b23b	0.07065245
236	0x3d273e2e	0.040830784
237	0xbcff737d	-0.031182999
238	0xbbe9dc45	-0.007136854
239	0x3d860249	0.065434046
240	0x3c813e12	0.015776668
241	0x3cd9968c	0.026561044
242	0xbd558279	-0.05212638
243	0xbd3d2926	-0.04618182
244	0x3d1c9bc8	0.038234502
245	0x3d3ffed8	0.046873897
246	0x3892dbf4	7.002792e-05
247	0xbd8db2d0	-0.069188714
248	0x3d8a79e5	0.06761531
249	0x3ccc1e1d	0.024916703
250	0xbb8e0355	-0.0043338933
251	0x3d8d22c7	0.06891399
252	0x3bd4808f	0.006485052
253	0x3d35784a	0.04430417
254	0xbd9d0f29	-0.07668907
255	0x3b5e0990	0.0033880211

fc3.bias f4 [128]
0	0x3d32a26a	0.04361192
1	0x3d8543aa	0.065070465
2	0x3d2e6d03	0.04258443
3	0x3d5bbf8e	0.053649478
4	0x3d36171f	0.044455644
5	0x3c7091f4	0.014683235
6	0x3da7668d	0.08173857
7	0xbd68f731	-0.056876365
8	0x3b92d0dd	0.004480465
9	0xbb7cc2c2	-0.0038568233
10	0xbbb0452e	-0.0053793406
11	0xbd41c1c5	-0.047303934
12	0xbcda1fb0	-0.026626438
13	0x3b20532b	0.0024463634
14	0x3c91e7f8	0.017810807
15	0xbba9e1c9	-0.0051843864
16	0xbadccb46	-0.0016845248
17	0xbd853d60	-0.06505847
18	0xbd1c11a3	-0.038102757
19	0x3d6362e8	0.055514246
20	0x3c233dc2	0.009963455
21	0x3d5dd4f2	0.05415816
22	0xbcbf811e	-0.023376998
23	0xbd0a2cab	-0.033734005
24	0x3cced7c3	0.025249368
25	0x3d1906eb	0.037360113
26	0x3d1f94d2	0.038960285
27	0x3c1a6e5b	0.009425725
28	0xbc9a5120	-0.018837512
29	0xbc6f8cf4	-0.014621008
30	0xbd8ea58e	-0.06965171
31	0xbd6f1872	-0.058372922
32	0x3c4d18e8	0.012518145
33	0x3d378c28	0.044811398
34	0x3c3d45ff	0.011552333
35	0x3d30997e	0.04311513
36	0xbc585d30	-0.013205811
37	0x3d62c93f	0.055367704
38	0x3d2bef73	0.041976403
39	0xbd140f9b	-0.036147695
40	0x3baba669	0.0052383435
41	0x3daa3f45	0.08312849
42	0x3cca1e22	0.024672572
43	0x3ba2a886	0.004963937
44	0x3d0b499e	0.034005754
45	0xbaf19586	-0.0018431402
46	0xbce78386	-0.028260957
47	0xbd0bab39	-0.034098838
48	0xbcb35ee1	-0.021895828
49	0xbca6bb8b	-0.0203531
50	0x3d6954a5	0.05696549
51	0xbd64248b	-0.055698913
52	0xbca3f9f6	-0.020016652
53	0x3d3e2cfd	0.046429623
54	0xbd231748	-0.039817125
55	0x3bad2bda	0.0052847685
56	0x3d474e8a	0.048658885
57	0x3d0772bf	0.033068415
58	0xbd00005f	-0.031250354
59	0xbc30e52d	-0.010796827
60	0xb89534b5	-7.114691e-05
61	0x3cc11a09	0.023571985
62	0x3c3ee6de	0.011651723
63	0x3d6a04a0	0.057133317
64	0x3c987d73	0.018614506
65	0x3d837c14	0.064201504
66	0xbc9a98dc	-0.018871717
67	0x3c554a93	0.013018268
68	0x3cb1dc29	0.021711426
69	0x3d827857	0.06370609
70	0x3d86c4eb	0.06580528
71	0x3d1adfcb	0.03781108
72	0x3c0cdb1a	0.00859716
73	0x3d07b71b	0.033133607
74	0xbd2024c1	-0.03909755
75	0x3ca354ef	0.01993796
76	0xbd4e5e73	-0.050383043
77	0xbd207318	-0.039172262
78	0xbca8d6b7	-0.020610197
79	0xbd80e3cd	-0.062934496
80	0xbd35033a	-0.04419253
81	0x3c81dd74	0.015852667
82	0xbd1beb3b	-0.03806613
83	0xbd855e56	-0.06512134
84	0x3d8c2ed6	0.06844871
85	0x3c013a63	0.007887456
86	0x3d6bafb6	0.057540618
87	0x3ca15957	0.01969592
88	0x3c275ea7	0.010215438
89	0x3cc056ea	0.023478944
90	0x3d2ca75f	0.042151805
91	0x3cbf9a47	0.023388995
92	0xbd005dd8	-0.031339496
93	0xbd49f99c	-0.04931031
94	0x3c8f2e6c	0.01747819
95	0x3c2fcf0a	0.010730514
96	0xbd2ad566	-0.04170742
97	0x3c5735b9	0.013135367
98	0xbd08d014	-0.033401564
99	0x3c8912f9	0.01673268
100	0xbd0ff4f9	-0.035145734
101	0x3ca35d0d	0.019941831
102	0x3ce8f89d	0.02843886
103	0x3d15e3a3	0.036594044
104	0xbca0b3bc	-0.019616954
105	0x3c2bdacc	0.010489177
106	0xbc604ded	-0.013690454
107	0x3d61a9a4	0.055093423
108	0xbd83ff8c	-0.06445226
109	0x3d215a30	0.03939265
110	0x3da0d4cf	0.0785309
111	0xbd324a95	-0.04352816
112	0xbd5bca42	-0.053659685
113	0xbd1c11a4	-0.03810276
114	0x3a843e88	0.0010089437
115	0x3c5c1dbb	0.013434823
116	0x3d15a70f	0.036536273
117	0xbd0f01c9	-0.03491381
118	0xbd288912	-0.041146345
119	0xbcdd0314	-0.026979007
120	0x3ceb26a9	0.028704958
121	0xbbc500f7	-0.006012078
122	0x3d154797	0.036445227
123	0x3c91b649	0.017787116
124	0x3bdade59	0.006679338
125	0x3d74e074	0.059784368
126	0xbc94993c	-0.018139474
127	0x38f487bf	0.00011660111

fc4.weight f4 [64, 128]
0	0x3d31e388	0.04342988
1	0x3d1c6f56	0.038192116
2	0xbc9cc10b	-0.019135019
3	0x3de57969	0.11204798
4	0x3da6263c	0.081127614
5	0xbc2c18cb	-0.010503958
6	0xbce9484e	-0.02847686
7	0xbd3f5526	-0.046712063
8	0xbdb38694	-0.08765903
9	0x3b27397b	0.0025516439
10	0x3d93f578	0.07224554
11	0xbd0c292f	-0.034218963
12	0x3dc01d3d	0.09380577
13	0xbc64121b	-0.013920332
14	0xbd3176ec	-0.043326303
15	0x3c9eb8a2	0.01937515
16	0x3dbb3e6a	0.09142764
17	0x3d80bee9	0.06286413
18	0xbce18bba	-0.027532447
19	0xb82c7b37	-4.112275e-05
20	0xbda95602	-0.08268358
21	0xbd9da1df	-0.0769689
22	0xbcf0eae8	-0.029408887
23	0x3da1f13d	0.07907341
24	0x3c890a4e	0.016728546
25	0x3cae8565	0.021303842
26	0x3cd5f65e	0.026118454
27	0x3da7cb93	0.081931256
28	0xbd4d7143	-0.050156843
29	0x3d82fc4c	0.06395778
30	0xbd3b6684	-0.045752063
31	0x3c975b0e	0.018476035
32	0xbcd517db	-0.026012352
33	0x3da4062d	0.080089904
34	0x3cac2768	0.021014884
35	0x3c4c0f26	0.012454784
36	0xbd6f24a4	-0.058384553
37	0x3dd4c79f	0.10389637
38	0xbdb6e77c	-0.08930871
39	0x3d1c8840	0.038215876
40	0x3d4c1270	0.04982227
41	0x3d3ec5b0	0.04657525
42	0xbcb08ae3	-0.021550601
43	0x3c583b29	0.013197699
44	0xbc27b814	-0.010236759
45	0xbdc56c3d	-0.096397854
46	0xbdb9b7c3	-0.09068253
47	0xbd93120c	-0.071811765
48	0xbd81949b	-0.06327172
49	0xbdd8958a	-0.10575397
50	0x3d904bbc	0.07045695
51	0x3d885817	0.06657427
52	0x3cfbea68	0.030751422
53	0xbd2ba9e1	-0.041910056
54	0x3d96696a	0.07344325
55	0xbce426f0	-0.027850598
56	0x3c4538a1	0.012037427
57	0xbd7603c4	-0.060062185
58	0xbda1a59e	-0.07892917
59	0x3c8153bb	0.015786996
60	0xbd6cd2e3	-0.057818305
61	0x3c460d07	0.012088067
62	0x3d83862d	0.064220764
63	0xbc928ac3	-0.017888432
64	0x3d5417d7	0.051780548
65	0x3d8e2c7a	0.06942077
66	0xba792ac4	-0.0009504969
67	0xbd35d892	-0.04439599
68	0x3d5b7849	0.05358151
69	0x3db2759c	0.087138385
70	0x3d3b364a	0.04570607
71	0xbd87550b	-0.066080175
72	0x3d7dc37d	0.06195401
73	0xbd1b0d23	-0.037854325
74	0x3df1de7d	0.118100144
75	0x3b896c47	0.004193816
76	0xbc6b1b15	-0.014349719
77	0x3cd0e9aa	0.025502045
78	0x3b8d192b	0.004305979
79	0x3d9056ef	0.07047831
80	0x3d874b7b	0.06606194
81	0x3ce1e6c4	0.027575858
82	0xbd8b7282	-0.0680895
83	0xbdb13227	-0.08652144
84	0xbdd717a4	-0.10502556
85	0xbd7c5d6a	-0.061612524
86	0x3da47215	0.08029572
87	0x3cb7b63d	0.022425765
88	0x3d6c7750	0.057730973
89	0x3dcc3e10	0.09972775
90	0xbbf6c170	-0.0075303838
91	0x3bdbdd05	0.006709697
92	0x3d4d09ba	0.050058104
93	0xbb0aae89	-0.002116116
94	0x3b7eb437	0.003886474
95	0x3d83deb4	0.064389616
96	0xbc887129	-0.016655521
97	0x3d4fd960	0.050744414
98	0x3b815a35	0.003947521
99	0xbdc23dd9	-0.09484453
100	0xbda0b7d9	-0.07847566
101	0x3d2b991d	0.041894067
102	0x3c9dd384	0.019265898
103	0xbd994eb0	-0.074857116
104	0x3d4c1822	0.049827702
105	0x3c38630c	0.011254083
106	0x3d8cedf2	0.06881322
107	0x3db4658d	0.08808432
108	0x3dd0b8de	0.101915106
109	0x3bba91af	0.0056936364
110	0x3cac24bc	0.02101361
111	0xbce91971	-0.028454514
112	0x3da3a963	0.07991292
113	0xbd55f904	-0.052239433
114	0xbccf781d	-0.02532583
115	0x3d967a6f	0.07347571
116	0xbd34f3b0	-0.04417771
117	0x3d9aa1fb	0.075504266
118	0x3d946557	0.072458915
119	0xbc7dc82b	-0.015489618
120	0xbcf54837	-0.029941661
121	0x3dbdc3d7	0.09265869
122	0xbd60e496	-0.054905497
123	0xbd7c3061	-0.061569575
124	0x3d80bdb8	0.06286186
125	0x3c841e0a	0.016127605
126	0x3d98cec8	0.074613154
127	0x3c20ee66	0.009822464
128	0xbdd6f4f5	-0.104959406
129	0xbd8a7a15	-0.067615665
130	0xbd06436b	-0.03277914
131	0x3b30d454	0.0026982026
132	0xbda7332e	-0.081640586
133	0xbd2d8173	-0.04235978
134	0x3da86d7a	0.08224006
135	0xbc825a02	-0.01591206
136	0xba7a585c	-0.000954991
137	0xbdc85d0f	-0.097833745
138	0x3d8c49ab	0.068499885
139	0xbd955ab8	-0.07292694
140	0x3c67d08b	0.014148842
141	0x3d242ddb	0.040082794
142	0x3de3da7d	0.11125658
143	0x3db2e6a4	0.087353975
144	0x3da62c75	0.08113948
145	0xbc45ac20	-0.012064964
146	0xbc3e05f2	-0.011598097
147	0x3d9e9194	0.077426106
148	0xbd5be1f6	-0.05368229
149	0xbcd077c3	-0.025447732
150	0xbda255c5	-0.079265155
151	0x3d27996f	0.04091781
152	0xbbd4ff11	-0.006500133
153	0xbdda1126	-0.10647802
154	0x3d221b8e	0.03957706
155	0x3db0b7f1	0.08628834
156	0xbda67ab6	-0.08128874
157	0xbd0f26ee	-0.034949236
158	0x3c840c3c	0.016119115
159	0x3d8f7e59	0.07006521
160	0xbd960370	-0.073248744
161	0xbbc6735e	-0.0060562333
162	0xbd77dcc9	-0.06051329
163	0x3dca3f47	0.098753504
164	0x3c76ee36	0.015071442
165	0xbd3fa2e9	-0.046786223
166	0xbdbe09c4	-0.092792064
167	0xbb496538	-0.0030730497
168	0xbd062d89	-0.03275827
169	0x3c9918e0	0.01868862
170	0x3d647f80	0.055785656
171	0x3db3f79a	0.087874606
172	0xbccde6ca	-0.025134463
173	0xbd4dbae1	-0.05022705
174	0xbd83e043	-0.06439259
175	0x3ceb05d9	0.028689312
176	0xbd1089f7	-0.035287824
177	0x3c6ee0a1	0.014579923
178	0xbd0c7ae7	-0.034296896
179	0xbd96960c	-0.07352838
180	0x3d845d9f	0.06463169
181	0x3d2b7af4	0.041865304
182	0x3d8769d3	0.06611981
183	0xbc878f3c	-0.016547792
184	0xbe02c800	-0.12771606
185	0xbdcf3bcc	-0.10118827
186	0x39725c60	0.00023113331
187	0x3d81dcec	0.06340966
188	0x3dbff956	0.09373729
189	0xbd45f4b4	-0.04832907
190	0x3d77e22c	0.06051843
191	0xbd7d5de6	-0.061857127
192	0xbd426ab8	-0.047465056
193	0x3d3a0c95	0.045422155
194	0xbd516805	-0.05112459
195	0xbd16aae1	-0.036784057
196	0x3d2aecc9	0.041729722
197	0xbd7de6d8	-0.061987728
198	0xb898826d	-7.2722185e-05
199	0x3c8ef317	0.017449899
200	0xbc2b9dc9	-0.010474631
201	0xbd939e29	-0.07207901
202	0xbc35dc1a	-0.01109984
203	0x3db8e398	0.09027785
204	0x3d2c043d	0.04199623
205	0x3ddd40a4	0.10803345
206	0x3d82f465	0.06394271
207	0xbd874425	-0.066047944
208	0x3de4dcd0	0.11174929
209	0xbd720b86	-0.05909302
210	0xbcd7a277	-0.026322586
211	0x3ca08ec1	0.01959932
212	0xbca425a4	-0.02003748
213	0x3d9a52e5	0.07535342
214	0xbda4be22	-0.080440775
215	0x3d444354	0.04791577
216	0xbd4969da	-0.049173214
217	0x3db96068	0.09051591
218	0xbd141267	-0.036150362
219	0xbcc1f04f	-0.023674158
220	0x3d5fb678	0.054617375
221	0xbd226476	-0.03964659
222	0x3d0d2512	0.03445918
223	0x3c41381d	0.011793164
224	0x3d2a0fb0	0.041518867
225	0x3ccb6883	0.024830109
226	0x3d3eda27	0.046594765
227	0xbc9dd67a	-0.01926731
228	0x3d28b7c5	0.04119088
229	0xbd17ad7a	-0.037030675
230	0x3dcb8348	0.09937149
231	0x3db5a26e	0.08868872
232	0xbc901dc0	-0.01759231
233	0xbd63c91d	-0.05561172
234	0x3d321ddf	0.04348552
235	0xbcbae816	-0.022815745
236	0xba23999c	-0.0006240846
237	0x3dcf6a3b	0.10127684
238	0x3b8f1168	0.0043660887
239	0xbd52389e	-0.051323526
240	0x3d7336f2	0.05937857
241	0x3be45890	0.0069685653
242	0x3da40400	0.080085754
243	0xbc97902d	-0.018501366
244	0x3c98d721	0.018657269
245	0x3c30a204	0.010780815
246	0x3c12b5d6	0.008954486
247	0x3ceb5423	0.028726643
248	0x3dcd43a7	0.10022669
249	0x3c77abfa	0.015116686
250	0xbd24d114	-0.040238455
251	0x3d3e3ec8	0.04644659
252	0xbc272e77	-0.010203949
253	0x3ddf3f0b	0.10900696
254	0x3dacd283	0.084385894
255	0xbd4b389b	-0.04961453

fc4.bias f4 [64]
0	0xbcc668ea	-0.024219949
1	0x3d954617	0.07288759
2	0xba345948	-0.0006879759
3	0x3dbae243	0.09125187
4	0x3dc04f29	0.093900986
5	0x3cb42003	0.02198792
6	0x3da36bad	0.07979522
7	0xbaa5a43e	-0.0012637449
8	0xbd88ab58	-0.06673306
9	0xbd2afe04	-0.041746154
10	0x3c524fcc	0.012836408
11	0x3c573a0c	0.013136398
12	0x39ed6f7b	0.00045287222
13	0x3d2ddfea	0.04244987
14	0xbce83888	-0.028347269
15	0xbd785ea8	-0.060637146
16	0xbcf683cf	-0.030092148
17	0x3d33eab7	0.043925013
18	0x3c83b80f	0.016078977
19	0xbca9c35e	-0.020723041
20	0x3de273cd	0.110572435
21	0x3d4de095	0.050263006
22	0xbd0f862c	-0.035040066
23	0xbc2f0ab7	-0.010683707
24	0x3d17e47c	0.037083134
25	0x3da812c7	0.082067065
26	0xbcd65f8a	-0.026168603
27	0xbcd61547	-0.026133193
28	0x3d112fbd	0.035445917
29	0x3cb831b2	0.022484634
30	0xbcc9f99a	-0.024655152
31	0xbd0df5b9	-0.034658168
32	0xbd202a1a	-0.03910265
33	0xbd844184	-0.064578086
34	0x3c049f81	0.008094669
35	0xbd17cf27	-0.03706279
36	0xbd1b10a0	-0.03785765
37	0xbc7707b2	-0.015077518
38	0x3cb5732e	0.022149649
39	0xbc58ceac	-0.013232868
40	0x3c9ea268	0.01936455
41	0xbcfad5be	-0.030619498
42	0xbccca19e	-0.024979409
43	0xbd8315f2	-0.0640067
44	0x3dd36ec2	0.1032386
45	0x3d95019d	0.07275698
46	0x3dd895c0	0.105754375
47	0xbd65bcbf	-0.056088205
48	0xbcaac876	-0.02084754
49	0x3d9a19f0	0.075244784
50	0xbda3cca0	-0.079980135
51	0x3dd65954	0.10466257
52	0xbd31fc18	-0.043453306
53	0xb952c577	-0.00020100722
54	0xbd626b24	-0.05527796
55	0x3c09b6c8	0.008405395
56	0x3d3c6d52	0.046002693
57	0xbca650e3	-0.020302242
58	0x3cca8bd5	0.02472488
59	0xbd16366c	-0.036672994
60	0xbce8c0e7	-0.028412296
61	0x3dc252e6	0.09488468
62	0xbc38a93e	-0.011270819
63	0xbd6deb18	-0.05808553

fc5.weight f4 [1, 64]
0	0x3df94618	0.121715724
1	0x3da40729	0.08009178
2	0x3db69526	0.089151666
3	0x3e0b5e9e	0.13610312
4	0xbd894875	-0.06703273
5	0x3d7ddcbb	0.061978083
6	0xbd821e66	-0.06353454
7	0xbd95821a	-0.073002055
8	0xbd8036a2	-0.062604204
9	0x3e0233f1	0.12715127
10	0x3e147816	0.14498934
11	0x3bcdefe7	0.006284702
12	0xbdc9f735	-0.09861604
13	0xbd12767b	-0.035757523
14	0x3d623869	0.05522958
15	0xbdc1b465	-0.09458236
16	0x3ce915cd	0.028452778
17	0x3d2b6047	0.041839864
18	0xbe23ebb3	-0.16007881
19	0xbe162e0d	-0.14666004
20	0xbd6ce65a	-0.057836868
21	0xbdeb99d1	-0.115039475
22	0xbe1bc77b	-0.15212815
23	0x3ddfb42f	0.10923039
24	0xbe17218f	-0.14758895
25	0x3e095813	0.13412504
26	0x3e046dcf	0.12932514
27	0x3d8a568a	0.06754787
28	0x3dc0e4e6	0.09418659
29	0xbd20ce60	-0.039259315
30	0xbe115a4f	-0.14194606
31	0x3e1d86da	0.15383473
32	0x3c4c5a19	0.012472653
33	0x3e16a9d4	0.14713222
34	0x3de51631	0.11185873
35	0xbd9f217d	-0.07770059
36	0xbdd9ac91	-0.106286176
37	0xbd5fead4	-0.05466731
38	0x3e246ee6	0.1605793
39	0x3e0ec67f	0.13942908
40	0xbda426b0	-0.080151916
41	0xbd921cc3	-0.07134392
42	0x3e0c6b56	0.1371282
43	0xbd6292b0	-0.055315673
44	0xbd512b92	-0.051066943
45	0x3d3ab105	0.045578975
46	0xbdaaca8e	-0.083394155
47	0x3e09726d	0.13422556
48	0x3e01ec10	0.12687707
49	0xbe1032f5	-0.14081939
50	0x3dd42c9e	0.103600726
51	0x3e1644d9	0.14674701
52	0x3d5a3295	0.053270895
53	0xbdf57ea9	-0.11987049
54	0xbdecd89e	-0.11564754
55	0xbd8aa3fd	-0.067695595
56	0xbd13686e	-0.035988264
57	0xbd48692c	-0.048928425
58	0x3df70804	0.12062076
59	0xbdc12ef8	-0.09432787
60	0xbd917ef5	-0.07104293
61	0xbe102cd7	-0.14079605
62	0xbe1d1097	-0.1533836
63	0xbd85de74	-0.0653657
